…
_________________________________________________________________
Layer (type)                 Output Shape              Param #   
=================================================================
input_word_ids (InputLayer)  [(None, 192)]             0         
_________________________________________________________________
tf_distil_bert_model_3 (TFDi ((None, 192, 768),)       134734080 
_________________________________________________________________
tf_op_layer_strided_slice_3  [(None, 768)]             0         
_________________________________________________________________
dense_3 (Dense)              (None, 512)               393728    
_________________________________________________________________
dropout_79 (Dropout)         (None, 512)               0         
_________________________________________________________________
dense_4 (Dense)              (None, 256)               131328    
_________________________________________________________________
dropout_80 (Dropout)         (None, 256)               0         
_________________________________________________________________
dense_5 (Dense)              (None, 128)               32896     
_________________________________________________________________
dropout_81 (Dropout)         (None, 128)               0         
_________________________________________________________________
dense_6 (Dense)              (None, 64)                8256      
_________________________________________________________________
dropout_82 (Dropout)         (None, 64)                0         
_________________________________________________________________
dense_7 (Dense)              (None, 32)                2080      
_________________________________________________________________
dropout_83 (Dropout)         (None, 32)                0         
_________________________________________________________________
toxicity_prob_head (Dense)   (None, 1)                 33        
=================================================================
Total params: 135,302,401
Trainable params: 135,302,401
Non-trainable params: 0
_________________________________________________________________

Training time: 9992.300254821777
Average train accuracy: 0.9813819527626038
Average train auc: 0.9981392025947571
Validation time: 523.7079792022705
Average validation accuracy: 0.8432292342185974
…
